Pytorch_scripts/model.pth (torch, 17031 bytes, 9 tensors)

conv1.bias f4 [64]
00000000: 59c6 39bd 52be 31bd 6310 2e0b 918b cb88
00000010: df47 ccbc 0c09 69bd cc2c 4cbd 6163 22bd
00000020: 7a58 37bd 4277 3abd 8817 2dbd 438b d9bc
00000030: 9eac 3307 8bf5 8abd d9c2 a8bc 3ff2 bebd
00000040: 57bd e6a0 228e 7abd a18d c138 ed6e e5bb
00000050: ba6e d6bc c60c 2f8b b8b9 99bc 2dff e98c
00000060: 0c89 6688 e6fb a0bc 9803 aebc bfad 6b88
00000070: 8229 333a 4da2 b4bc f53d 5fbd 7e49 50bd
00000080: 1d8b 7923 25a9 428c f6ac 4fbd f445 2713
00000090: dcd0 2dbd 23af 11bd 3afe 04bd 20e8 73bc
000000a0: 3d6a adbc 8313 e2a5 e53b 28bd 5000 d8bc
000000b0: 9210 43a5 0fe0 17bd edbc 868a 2046 b1bb
000000c0: 2f24 a7bc eeca e5bc dfba 9bbc 8b74 9f86
000000d0: 02ff 72b0 c820 d9bc dbb5 9fb7 26fa fabc
000000e0: 5c9e d80b 29df d3bb ed9b 6a09 37cc 65bd
000000f0: 03b1 ec08 6c18 3e0d 5d71 4ebd 6387 40bd
-0.045355175 -0.043394394 3.352351e-32 -1.225043e-33 -0.024936615 -0.056893393 -0.04984741 -0.039645556
-0.044762112 -0.04552389 -0.04225877 -0.026555663 1.3517191e-34 -0.06785115 -0.020600723 -0.093235485
-3.908881e-19 -0.061170705 9.2293376e-05 -0.007001749 -0.026175845 -3.3713384e-32 -0.018765315 -3.6052913e-31
-6.9374205e-34 -0.019651365 -0.021241948 -7.0921978e-34 0.0006834493 -0.022050047 -0.054502446 -0.050851338
1.35277754e-17 -1.4996116e-31 -0.050702058 2.1112853e-27 -0.042435512 -0.035567414 -0.03246901 -0.014886886
-0.021168822 -3.9217972e-16 -0.041072745 -0.026367337 -1.6919168e-16 -0.037078913 -1.2974797e-32 -0.005409971
-0.020402996 -0.028050866 -0.019010006 -5.9980397e-35 -8.8401475e-10 -0.02650489 -1.903896e-05 -0.030636858
8.3438446e-32 -0.0064658117 2.8240041e-33 -0.056102958 1.4245349e-33 5.8577667e-31 -0.05040108 -0.047004115

conv1.lin.weight f4 [64, 11]
00000000: 2da2 2abe 16ec 893d f518 d93d edbf 2787
00000010: 6109 b5bc b8cc 2208 7e67 9787 e514 1cbe
00000020: a99b 8684 cbc5 a007 2501 e2bc 6b64 07be
00000030: 8995 32bd 8b1a 0a3e 2491 b106 7092 d13d
00000040: 817f 2f08 a3d8 6488 162b 273e fb11 6c07
00000050: cfa7 4808 55f5 6dbe 83dd a63a d60a bfba
00000060: dc48 52ba 06b8 c687 6bb9 843c 6c1e 9107
00000070: 74fe 1787 6f15 9eb7 7815 dc07 bf5d cc06
00000080: e534 1314 3e6b 7caf 8b89 05b1 46df 73af
00000090: 682a 6287 2f33 3638 d01d c786 7a35 7708
000000a0: 444d 4218 0ebd b987 3525 5f06 ac2c 7b89
000000b0: ad2a 2c3e c765 0a3e ce94 18be 3d24 9505
000000c0: f5ba 19be ce58 a303 6fb8 f586 9244 143d
000000d0: 2944 1008 ab7b 8c87 632e 2ebb b77a 6cbd
000000e0: e582 cabd 574d 473d 54fb 9e07 2c80 84bd
000000f0: aa8a 0786 501c b207 d416 693e 52f0 3408
00000100: 8c51 9a84 6c00 a83d d147 933d 57b9 e83d
00000110: aa62 5b3d 4451 2787 e3a9 893c 6fc4 cc87
00000120: 222c 8c07 db91 db3d 0b2b 3e86 7aae 0487
00000130: 43ca 4f3d b119 febd 0ad8 93bd 019d 3b3e
00000140: 209c 1388 f670 273c cdb1 fc06 697e b985
00000150: 74dc 5abe fcfc 6a08 9ee8 3188 8ee7 a73d
00000160: 75ce 033c 5720 91be d20e 57be 389c 9d06
00000170: 915c 85bd e23d a007 08d8 cd87 f481 02be
00000180: 5af6 5708 d10c 8008 76c8 953d 5c24 a63d
00000190: d562 94bd 47f0 8abd 4e99 2c86 c9d0 f0bd
000001a0: 2b48 0806 405d 2e08 05eb ff3d 063a af87
000001b0: 4009 0c88 25c4 94bd f915 65be 863c 483e
000001c0: ed6c b6bd 6bfe 6c88 7cbb 19be 13ca b887
000001d0: eff1 9d86 d6fc 203e 1dea 6105 587d 5e06
000001e0: 9487 fbbd b53a 8cbe c42c 9d3d 85ea 43bb
000001f0: 0c0c fa86 78c8 1fbe a5cf e406 7741 fd87
00000200: b35b 373e 171c 1d88 1229 1908 b78d ed3c
00000210: ccc9 538a 5d3d 7e97 0063 ba10 f389 7805
00000220: ebab ff31 3e82 7a88 5c08 7c86 99be 820c
00000230: 396a dd06 1e0b 3786 bd68 2e09 731b 1ebe
00000240: 549c 4e3d 7d1c a4be 60bd 0488 d358 dfbd
00000250: c685 c387 9a20 b087 8bec a23e 3050 1288
00000260: f151 6688 5dc3 ab3d fca4 babd f5d1 ea3d
00000270: f3ce 5a3d 202e da07 63b1 52bd 266a a086
00000280: a19b f306 5949 513e 4e0d b587 80ea 7787
00000290: f124 84bd 2183 843a 6071 1abd 353a 0a3d
000002a0: 31b1 c307 47c9 533c b389 5188 6b7d 0886
000002b0: 3afd 6e3e 58b4 9f05 70f1 d907 60e4 8bbd
000002c0: 946b 8620 fc97 5722 f076 94a2 9eaa 6987
000002d0: 4f2f 4523 0b6b 4088 b410 ea87 332e b4a0
000002e0: 6174 5e07 fa0f 0b06 de40 77a1 6ad4 acbd
000002f0: 6322 013c e77b fc3d 8c3c 8a07 948a d43d
00000300: 3b4d 8387 1817 cc85 7e69 03be 72c2 4108
00000310: 166c f207 bd9f 15be b365 c4bc 8494 e8bc
00000320: 014d 1cbd 7e8e 2c08 45b5 0a3d edca c106
00000330: 5dbb fd87 13a3 f23c fead 8b88 2aa9 ce07
00000340: b448 24bc 306a af3d eadf 48bd 4efb 28be
00000350: e61a b307 af4f 8ebe bfbd f185 3f10 4e07
00000360: 5d97 023e 31e6 3707 bb99 8e85 cc12 b4ba
00000370: de27 35be 06ec ebbd a8e0 27be b07c d987
00000380: e6d7 00be 1adb 5324 e4d8 d487 2036 b9bd
00000390: 01bd bc07 b2fb 4d07 225e ecbd a235 5db1
000003a0: c82f eeb3 15c1 c9b2 c216 0b87 2c7a d739
000003b0: ac75 7606 9c47 6d06 58ac fa20 e6c9 4687
000003c0: db7d 2408 22d2 7b8b 5948 1fbe 655c 3b3d
000003d0: 5f0c 0fbd c763 2d88 3eed 57bc 9208 0687
000003e0: aca5 9e88 b1a3 4abe d128 38b2 8aa7 0707
000003f0: e002 b4bd 2d3f 41bb 81a1 acbb dd89 c83b
-0.16663428 0.06734483 0.10600463 -1.2620086e-34 -0.022099199 4.8990747e-34 -2.2780782e-34 -0.15242346
-3.16462e-36 2.4190377e-34 -0.027588436 -0.132219 -0.04359964 0.13486688 6.6793265e-35 0.10233009
5.2812027e-34 -6.886591e-34 0.1632503 1.7759951e-34 6.038257e-34 -0.23238118 0.001273081 -0.0014575373
-0.0008021721 -2.9899888e-34 0.016201695 2.1835056e-34 -1.1434754e-34 -1.8845049e-05 3.311454e-34 7.687402e-35
7.432035e-27 -2.2957367e-10 -1.9432231e-09 -2.2180044e-10 -1.7014812e-34 4.343985e-05 -7.4899286e-35 7.439172e-34
2.5112921e-24 -2.7946823e-34 4.1968974e-35 -3.023403e-33 0.16813155 0.13515387 -0.14900514 1.4025205e-35
-0.15012725 9.6006675e-37 -9.242976e-35 0.036198206 4.3413546e-34 -2.1137544e-34 -0.0026577942 -0.057734217
-0.098882474 0.04865774 2.3920915e-34 -0.06469759 -2.5492552e-35 2.6799104e-34 0.22762614 5.4449275e-34
-3.6280115e-36 0.082032055 0.07191432 0.11363476 0.05356089 -1.2587565e-34 0.016804641 -3.0809962e-34
2.1090798e-34 0.10721179 -3.576665e-35 -9.98185e-35 0.05073 -0.12407244 -0.072189406 0.18321611
-4.4419727e-34 0.010219803 9.505312e-35 -1.7443752e-35 -0.21373159 7.0714195e-34 -5.353744e-34 0.081984624
0.008044829 -0.28344986 -0.21001747 5.928638e-35 -0.06511796 2.4110496e-34 -3.0971944e-34 -0.12744886
6.4988794e-34 7.706733e-34 0.073136255 0.08112404 -0.07245413 -0.067841105 -3.2462235e-35 -0.117585726
2.5631778e-35 5.2470835e-34 0.12495998 -2.6365177e-34 -4.214059e-34 -0.07263974 -0.22371663 0.19554338
-0.08907495 -7.1317734e-34 -0.15012926 -2.7804012e-34 -5.9412326e-35 0.1572145 1.0622449e-35 4.1845647e-35
-0.12281719 -0.2738854 0.07674554 -0.0029894423 -9.405725e-35 -0.15603817 8.6069174e-35 -3.8105686e-34
0.17906074 -4.727849e-34 4.609004e-34 0.028998239 -1.0197234e-32 -8.214928e-25 7.35166e-29 1.1686241e-35
7.4410216e-09 -7.5384737e-34 -4.7402074e-35 2.0144383e-31 8.328704e-35 -3.4426642e-35 2.0993736e-33 -0.15440159
0.050442055 -0.32052985 -3.9944914e-34 -0.10905614 -2.9418964e-34 -2.6500698e-34 0.31821093 -4.4029537e-34
-6.930943e-34 0.08386872 -0.091134995 0.114658274 0.05342002 3.2828104e-34 -0.0514387 -6.034128e-35
9.1635117e-35 0.20438136 -2.7241673e-34 -1.8651128e-34 -0.064523585 0.001010988 -0.03770578 0.033746917
2.9444483e-34 0.012926406 -6.3055514e-34 -2.56709e-35 0.23338786 1.5018536e-35 3.2792435e-34 -0.068306684
2.2771672e-19 2.9218393e-18 -4.024141e-18 -1.7579112e-34 1.0689409e-17 -5.7903727e-34 -3.5218224e-34 -3.0523758e-19
1.6735624e-34 2.6154732e-35 -8.3772706e-19 -0.08438952 0.007881734 0.1232832 2.0799518e-34 0.10377994
-1.9756081e-34 -1.9192551e-35 -0.12833211 5.8307394e-34 3.647564e-34 -0.14611717 -0.023974275 -0.02839113
-0.038159374 5.1926866e-34 0.03386428 7.2896704e-35 -3.8177331e-34 0.029618775 -8.406664e-34 3.109486e-34
-0.010027099 0.085651755 -0.049041666 -0.16502115 2.6948736e-34 -0.2779517 -2.2733233e-35 1.5502492e-34
0.12753053 1.3835037e-34 -1.3410087e-35 -0.0013738512 -0.1769099 -0.11519627 -0.16394293 -3.2723816e-34
-0.12582359 4.5938918e-17 -3.2025692e-34 -0.09043527 2.8398183e-34 1.5496452e-34 -0.11541392 -3.219022e-09
-1.109143e-07 -2.3487283e-08 -1.0463886e-34 0.0004109902 4.635391e-35 4.4627356e-35 4.2465695e-19 -1.4955197e-34
4.9499897e-34 -4.8498928e-32 -0.15554942 0.04574241 -0.034923907 -5.217758e-34 -0.013179122 -1.0083558e-34
-9.548228e-34 -0.19789006 -1.071949e-08 1.0205506e-34 -0.08789611 -0.0029487119 -0.005268276 0.00611995

conv2.bias f4 [32]
00000000: b208 05a9 e1de c18c f21f debb a603 0abc
00000010: 5069 fbbc 96d8 d6bc 7d82 a3b4 f114 3fbc
00000020: f6a5 150b 10de 7abc c964 5ebd 94a6 f3bc
00000030: 891b a0bb df54 fc33 2028 dabb d1c8 0ebd
00000040: 514d 1fbb 82f0 0ebd 4610 98bd a78b b099
00000050: 4f6f 5bbc dc51 600d 8962 e5bc 1d79 a23c
00000060: 83fb ff8e 5d69 9f3d aa23 2abd 77e9 54bb
00000070: e177 3dbc c63c 77bc 51f7 59bd a35f 06bd
-2.9539474e-14 -2.9870499e-31 -0.0067787105 -0.008423721 -0.030689865 -0.026226323 -3.045606e-07 -0.011662708
2.882121e-32 -0.015311733 -0.054295335 -0.029742517 -0.004886095 1.17501024e-07 -0.0066576153 -0.034859482
-0.0024307559 -0.034897335 -0.07424979 -1.8254379e-23 -0.013393237 6.9123864e-31 -0.028001087 0.019833142
-6.310455e-30 0.07783768 -0.04153792 -0.0032487789 -0.011564226 -0.015090173 -0.053214375 -0.03280605

conv2.lin.weight f4 [32, 64]
00000000: ea06 0bbc 5014 ab85 a86e c308 eb02 8c07
00000010: 8bf6 ab3c c900 6db5 1e22 24bc 509d 9abb
00000020: a577 c0b6 d005 1fbc 335e 4bbb 2567 2bbc
00000030: 5bd1 6e88 1cc3 0222 4b1a 723c f6fa 4fbd
00000040: a88b 0906 2d50 0cac 6990 1788 6e8a 5abc
00000050: 6969 aa16 0465 cf07 1a00 c9b7 a9e4 7206
00000060: 5e52 c187 0255 128a ceb5 b1bc 24bb 0788
00000070: 26c6 91bb 6a3b 4107 3883 cdb9 0e99 0487
00000080: 153d 4f85 6204 7706 d45e eb2c d02d 0f08
00000090: b723 b8bc 552d 9eb9 699a 11bd bc3d 0508
000000a0: 9d65 17b3 918a b186 19ce d620 5cc1 dd3b
000000b0: 978e e786 a8ca f30a bc98 0c88 f809 54ba
000000c0: 0cb0 1988 597d c2bc e7b5 b0bb acde fb86
000000d0: 8211 5d87 af0e 9e87 74e6 a806 fc93 2794
000000e0: 98a3 0e88 9413 1fb2 25a0 2488 3e83 84bc
000000f0: 9ef0 5e07 82c7 9f07 499d 7a39 6c42 353a
00000100: 5805 bdb2 a0d8 fe06 e7cc 4008 d4ac 2f07
00000110: f2b1 e9b9 0861 8106 757f 0cb7 f81f b8b1
00000120: 87c7 7c0b f0bf 17b6 9cd5 22b2 dbcf a2b3
00000130: 8d15 7286 6cfe 5188 a972 3cb7 978a 31b7
00000140: ef70 6b87 9a4c 8007 b5df 5d86 2a40 36b9
00000150: 78bb 0e07 4816 db08 1e85 039c 7d4b 4c08
00000160: c22f 890c b992 208c 5356 53b9 10bb 5e07
00000170: 3b64 8fb6 ab9d 0488 f1db 678b efcc d087
00000180: f77f 4607 6873 0607 c2ad 2f0a bf83 9f86
00000190: 3147 88b9 af3e 640a 8eb5 99b9 a05b 2c08
000001a0: 7af3 6b86 acbd bd07 18fa 0a08 dace 47b6
000001b0: 1d7b 4188 5e7c d187 d001 0507 0021 f594
000001c0: 0e1b 3388 1e8c a9b8 d90e 71b4 36a6 1306
000001d0: bb9f 870c 1135 b5b3 d62e 9507 d2c5 dc07
000001e0: 1414 1788 e136 0918 11f1 1f87 b9c8 44ae
000001f0: a2f3 2008 1fb5 ab07 ee8a d88a af17 9a8b
00000200: 6113 c03d 56e2 2cb6 64bf 0607 f725 da87
00000210: c297 3f3d c27a 0b3e 66eb 5a3d 0c94 edbd
00000220: a9c8 60be 8d8b 073d cd43 aa3d 75a3 c93d
00000230: 0115 be07 8534 dfbd 8933 36be e2d1 efbd
00000240: c5e2 aa07 5b89 ba3d b5ff 8208 166c d9bd
00000250: ca43 113e f85c 3686 e8e7 89bd bc45 3e88
00000260: 8ab2 4088 3d16 f6bc c40a 4abe 0f5b 7005
00000270: acc4 c63d a5aa 24bd 01d2 f23d 2560 503d
00000280: eebe 0208 f86d f306 aac1 623d e63d fe85
00000290: a990 7ebe 506f 60bd c094 b43d c3c6 b4bc
000002a0: 8c84 fd3d 53ed 9787 7089 39be a862 1fbd
000002b0: 17ba 4088 1bf6 843d 1eda 8b06 efdd 303c
000002c0: b1d1 0bbb 7d07 d1bd 5918 50be 90dc c907
000002d0: 2e95 2587 7cb2 84bd 582b 1831 dbe3 e53d
000002e0: 8bcf 8408 43b6 6bbc 62fc 9a06 0e02 cbbd
000002f0: 1362 a786 3afb 2405 df37 f5bd fc73 123e
00000300: 5aa9 0a3e de9f 07bd b933 8408 f994 c487
00000310: f3ed 66be f3ac 023e b664 54be 9151 bc3d
00000320: c7df e43c 5f8a db3c e440 8bbd ff70 8abd
00000330: de2a a807 d5aa 883d 54d7 06be 4264 8abe
00000340: 6c56 8a87 b81f 9b3d 250c 8807 fae3 773d
00000350: 5b1c b33b 5842 5b06 dca8 18be 1d26 bb85
00000360: 11c8 1987 d753 8e3d 7f4d ed3d 57d8 d107
00000370: eed2 19bd 5e4e c5bd 5bd3 7fbe 9c48 8fbd
00000380: c5f4 1007 484a 5d87 5609 893d a0bf c286
00000390: 125f 31be 8312 9e3d 7803 503d cc67 c43d
000003a0: bfb5 90bd 0bcf 2588 d83f 09be 0233 6dbe
000003b0: 91fa 5308 11b8 2abe 18ea e587 b081 f8bc
000003c0: 0e5f 75b4 4b22 6e3d d1f7 67be a7b5 7406
000003d0: 0377 7f05 7813 173d 15d0 2588 e4f9 42b9
000003e0: 41e7 3c87 33eb 293a 805f 1b86 b535 0bbd
000003f0: 10ec 5888 12db e286 c74f 113e 5251 1d3d
-0.008485535 -1.6088224e-35 1.1762151e-33 2.1066574e-34 0.020991584 -8.829052e-07 -0.0100179 -0.00471846
-5.7359744e-06 -0.009705976 -0.003103149 -0.010461603 -7.1866616e-34 1.7721575e-18 0.014776777 -0.050776444
2.586944e-35 -1.9939703e-12 -4.5609663e-34 -0.013338668 2.7531504e-25 3.120527e-34 -2.3961114e-05 4.5683134e-35
-2.9087824e-34 -7.0456325e-33 -0.021693137 -4.0845068e-34 -0.00444867 1.4537166e-34 -0.00039198413 -9.975555e-35
-9.744312e-36 4.6458757e-35 6.6896298e-12 4.308635e-34 -0.022477968 -0.00030169883 -0.035547648 4.00958e-34
-3.5249844e-08 -6.6783605e-35 3.6389394e-19 0.006767435 -8.710206e-35 2.347628e-32 -4.2309256e-34 -0.00080886437
-4.6248705e-34 -0.023741411 -0.005392778 -9.4742893e-35 -1.6631337e-34 -2.3781828e-34 6.3533197e-35 -8.46053e-27
-4.2923874e-34 -9.25947e-09 -4.9540204e-34 -0.016175862 1.6772135e-34 2.4040921e-34 0.00023900451 0.00069144997
-2.2004926e-08 9.586248e-35 5.801876e-34 1.3216326e-34 -0.00044573803 4.866698e-35 -8.374326e-06 -5.3587392e-09
4.8683542e-32 -2.2612476e-06 -9.47821e-09 -7.5815215e-08 -4.5530974e-35 -6.319272e-34 -1.123237e-05 -1.058229e-05
-1.7712623e-34 1.9304322e-34 -4.1729834e-35 -0.00017380776 1.0737985e-34 1.3185821e-33 -4.3516314e-22 6.1477753e-34
2.1136935e-31 -1.2370104e-31 -0.00020154686 1.6756396e-34 -4.2734005e-06 -3.9907643e-34 -4.4654447e-32 -3.141681e-34
1.493347e-34 1.0114954e-34 8.458624e-33 -6.0002736e-35 -0.00025992983 1.098959e-32 -0.00029317703 5.186707e-34
-4.4377466e-35 2.8549038e-34 4.182185e-34 -2.9773714e-06 -5.8223544e-34 -3.1519921e-34 1.000634e-34 -2.4751694e-26
-5.3897656e-34 -8.084647e-05 -2.2450276e-07 2.776974e-35 2.0896178e-31 -8.438122e-08 2.2446556e-34 3.321819e-34
-4.546351e-34 1.7734542e-24 -1.2032674e-34 -4.4743518e-11 4.8434638e-34 2.5835674e-34 -2.0852303e-32 -5.935428e-32
0.09378696 -2.5761742e-06 1.0137284e-34 -3.2823308e-34 0.046775587 0.13621047 0.05344715 -0.11600503
-0.21951546 0.03309207 0.08313713 0.0984563 2.8600368e-34 -0.10898689 -0.17793097 -0.11709954
2.571204e-34 0.0910823 7.884207e-34 -0.10616319 0.14186016 -3.4298698e-35 -0.06733686 -5.7258018e-34
-5.798777e-34 -0.0300399 -0.1973067 1.13014706e-35 0.09705481 -0.0402018 0.11856461 0.05087294
3.934489e-34 9.1568025e-35 0.055360474 -2.3908783e-35 -0.24859871 -0.054793656 0.08817434 -0.022067433
0.12378797 -2.2859441e-34 -0.18118834 -0.038912445 -5.7996646e-34 0.064922534 5.2606483e-35 0.010795101
-0.0021334703 -0.102065064 -0.20321788 3.0372754e-34 -1.245706e-34 -0.06479356 2.214355e-09 0.112251006
7.993254e-34 -0.014386716 5.8299205e-35 -0.09912501 -6.2962525e-35 7.757386e-36 -0.11973547 0.14302057
0.13541165 -0.033111446 7.956621e-34 -2.957836e-34 -0.22551708 0.12761287 -0.20741543 0.09195245
0.027938737 0.026799379 -0.06799486 -0.067598335 2.5303026e-34 0.066732086 -0.13168079 -0.27029616
-2.0814726e-34 0.07574409 2.0470144e-34 0.06052015 0.0054660267 4.1238064e-35 -0.14908165 -1.7599396e-35
-1.1569235e-34 0.06949585 0.11587047 3.1573978e-34 -0.037554674 -0.09634088 -0.2498297 -0.06996271
1.0905287e-34 -1.6648021e-34 0.06691234 -7.3256257e-35 -0.17321423 0.077183746 0.050784558 0.0959011
-0.07065915 -4.989626e-34 -0.1340326 -0.23163989 6.379004e-34 -0.16671778 -3.4593678e-34 -0.030335277
-2.2851984e-07 0.058138173 -0.22653128 4.6024757e-35 1.20119014e-35 0.0368838 -4.989748e-34 -0.00018594373
-1.4211507e-34 0.0006481886 -2.9222422e-35 -0.033986766 -6.5277626e-34 -8.5333646e-35 0.14190589 0.03840763

conv3.bias f4 [16]
00000000: 8e73 53bd 4ddf d1bc 8877 70bd 77e0 24bc
00000010: 7029 e6ba 1759 35bd 8701 e2bc daf3 c53e
00000020: f60f 52bd ffb0 9dbc d84c 9ebd 9791 4b3f
00000030: e0f5 88bd d4f7 643f 6810 523f 250f 41bd
-0.051623873 -0.025619173 -0.058707744 -0.010063282 -0.0017559957 -0.044274416 -0.027588619 0.38662606
-0.051284753 -0.019249437 -0.077295005 0.7951903 -0.06687522 0.89440656 0.82056284 -0.047133584

conv3.lin.weight f4 [16, 32]
00000000: 8939 b408 83fb 8b86 23eb 77be e07a bd0e
00000010: 79c6 113e 3e4e e93c bd8f e087 acff fe3d
00000020: 827c e206 5141 a4bc aa8e 323c 3403 9dbe
00000030: e5d6 b5be a40d 2686 dceb 11be 46af 8cbd
00000040: a177 c8bd 0134 f03d 2b39 823e cfaa 6c88
00000050: 3e75 3737 cfa9 8f87 f9e1 5e3e b3cd cfbd
00000060: 018b 1787 695c 31bd 1479 6bbe 866b b705
00000070: ac17 2d3e b9b7 652b 277d 7ebd 5d3a d9bd
00000080: f7b4 0f88 b6fc 5e88 798c 343e 2577 0d3b
00000090: 011b 94bb c1ea 303d 8f8c 9307 9a23 08bc
000000a0: a405 9d86 4a74 c53d e85e ad3d ce36 91be
000000b0: eb97 70be 5892 7f1f 44ef 072d 748f 0ebe
000000c0: 3532 a2bd 4ef1 09be f0ca f83c 78c5 4b10
000000d0: e330 9f3c 053d 3a88 c43d 7c3e cfba 41bc
000000e0: 64f5 3986 8142 323b ca87 af3d 35d3 8d86
000000f0: 91b3 873d fd20 7c23 fb13 e9bd 1ba8 71bd
00000100: 188a 6f87 20d3 1608 d7d8 8ebc d86e 853b
00000110: 5baf edbd 9225 9fbe be71 0306 4d90 6008
00000120: 5278 d087 7bf7 243e c3c1 7b3e e0ca 7eba
00000130: cea5 a73a cf3f 3408 ed3e 0108 2bc4 0a3e
00000140: 2c0d 9bbe bf5f 94be 99ed 4abe e755 ac08
00000150: a50b 693b 8c32 9e07 26f8 febd 1c87 e1bb
00000160: 4352 b986 bf54 31bd f8c4 f53d 8576 9dba
00000170: 7893 1cbe 7b87 7e86 2a02 77be 0929 0539
00000180: 00fd 2808 ab43 d087 ff84 193e c4af 08b2
00000190: 2d59 16bd 82bd c13d ff33 2587 b489 173d
000001a0: 24ea c788 ca81 a8bd 1db0 ca3c 46e4 1c3e
000001b0: db48 503c e60f 7d0d bd3c f03d d485 5f3e
000001c0: 4ea0 97be dfec 413e a6c7 2f3c c566 710c
000001d0: 8ace e6bb 01c6 4907 c021 373e aa3d 763e
000001e0: 9faa d8b5 a040 7cbe f7da 4c3e 4699 a8bc
000001f0: 218b e73d d507 dd0f 25cd 953e dc6d 57bc
00000200: 086c e386 2e0b 1a08 503d 0a8f f214 2e88
00000210: 3a63 3796 f18d 27be dce6 f506 6acf 3f0c
00000220: 80e0 d586 89f1 ce3d 68e8 8c88 b759 b8bd
00000230: 723e 0cbe eab2 0089 3439 1309 c3f6 8687
00000240: 96bc 0a3d d873 46bc 32a8 5936 c56b b589
00000250: 0ff0 a108 f909 5908 e75c 66bd 3fd4 183e
00000260: d41d 0a0a c616 ccbd 54a9 65bd 6e3c 3b39
00000270: 5693 11bd d834 7708 c084 e207 82ca 2510
00000280: 95b3 d507 ac84 0287 0e10 a7be eec0 443c
00000290: 1135 983d c427 b4bd 7bea cb07 533d 77ba
000002a0: 2171 5f88 1f47 a3bc 5a07 3c3e 2589 a83d
000002b0: 67c3 e53d de5d f505 1cb9 61bb 86fb f23d
000002c0: 2aae 84ba d5ba bd3d 6833 9b3e 0832 8107
000002d0: 7ed7 2c3d 5281 f086 ee61 113e f353 3dbe
000002e0: 7a80 8908 3c31 5dbe 64da e9bd c5b2 ab86
000002f0: 20e1 4fbe 0f27 f398 50e2 0abe 458b 2ebe
00000300: a8b5 0606 e9c2 cf87 93fd 663e 0ede 65ba
00000310: 97c7 eebd 32c1 0e3e 2b61 b888 dc0b 2cbe
00000320: 1ec9 c707 9e53 b9bd cde8 71bd 78c7 643d
00000330: 7b6c 6b3e 3918 ec86 5c46 3c3e cc81 8f3d
00000340: 0b1b f8bd 88a6 883d 64b2 bd3d 387e 3688
00000350: 0faf a53b 5f20 f602 ccad 15be 43fe 27be
00000360: c747 4408 1c79 b6be 919b 253e b4a9 2708
00000370: 648d 303e d1e2 2690 b98f 123e 5ef7 653e
00000380: 724d 4a07 6564 280c 0e32 dbbc 3275 1c3c
00000390: 6714 a1be 56e7 c0bd 04b8 a489 9fd9 833b
000003a0: 2ebf 64bb 812c 87be 8671 fb3c 5370 59bd
000003b0: ac1d 9dbd a8fb bd32 e1e0 218a 9d8d bbbc
000003c0: 0481 4abe b313 5abe 4945 553e 1576 43b6
000003d0: 5e7d d0bd 2618 2a8c 87f5 89be fed4 bcbe
000003e0: c3f8 4017 86a2 18bc 274d 86bb 96a6 883c
000003f0: 04e4 45bd 8bd2 c1bd edec 5b3e 0858 cbb9
1.0846882e-33 -5.265555e-35 -0.24210791 4.671042e-30 0.14235868 0.028479692 -3.3788256e-34 0.12451109
8.51947e-35 -0.020050677 0.010898272 -0.30666506 -0.35515514 -3.1231152e-35 -0.1425013 -0.06869368
-0.097884424 0.11728669 0.2543424 -7.121945e-34 1.0934948e-05 -2.1616053e-34 0.21765889 -0.10146656
-1.1400827e-34 -0.04330102 -0.22995406 1.7248735e-35 0.16903561 8.161211e-13 -0.062131073 -0.10606835
-4.324522e-34 -6.7102755e-34 0.17631711 0.0021585908 -0.0045198207 0.04319263 2.2200715e-34 -0.008309269
-5.9065124e-35 0.09641321 0.084653676 -0.28362125 -0.23495452 5.4119403e-20 7.726989e-12 -0.1392191
-0.079197325 -0.13470957 0.030370206 4.0186815e-29 0.01943249 -5.6044067e-34 0.24632937 -0.011824324
-3.4974917e-35 0.0027200284 0.085708216 -5.3348646e-35 0.066260464 1.3667933e-17 -0.11380764 -0.05899821
-1.8020944e-34 4.538716e-34 -0.017437382 0.0040720515 -0.11605712 -0.3108335 2.4721926e-35 6.7577173e-34
-3.136708e-34 0.16110031 0.24585633 -0.0009719562 0.0012790503 5.4241786e-34 3.8893494e-34 0.13551395
-0.30283487 -0.28979298 -0.19817199 1.0372069e-33 0.003555992 2.3802907e-34 -0.12449674 -0.0068825614
-6.971014e-35 -0.04329371 0.120004594 -0.0012013471 -0.1529063 -4.7871626e-35 -0.2412192 0.00012699155
5.085306e-34 -3.1336133e-34 0.1499214 -7.956206e-09 -0.03670614 0.09459974 -1.2428501e-34 0.03699656
-1.2031923e-33 -0.0822788 0.02474218 0.15321454 0.012712683 7.798078e-31 0.11730335 0.21828395
-0.2961449 0.18938015 0.010728752 1.8596891e-31 -0.0070436643 1.5179747e-34 0.17883968 0.2404696
-1.6142911e-06 -0.24634027 0.20005403 -0.020580899 0.113058336 2.17953e-29 0.29258075 -0.013148751
-8.554665e-35 4.635583e-34 -6.815734e-30 -5.238584e-34 -1.4813933e-25 -0.1636274 9.2497974e-35 1.4776521e-31
-8.045157e-35 0.10104663 -8.480582e-34 -0.09001487 -0.13695696 -1.5491565e-33 1.7721378e-33 -2.0307113e-34
0.033871256 -0.01211258 3.2433422e-06 -4.367551e-33 9.7462725e-34 6.5312785e-34 -0.056240942 0.14924715
6.650068e-33 -0.09965281 -0.056069687 0.00017856222 -0.0355409 7.4390976e-34 3.4082724e-34 3.269652e-29
3.2154227e-34 -9.819102e-35 -0.32629436 0.012008889 0.074319966 -0.08796647 3.068186e-34 -0.000943144
-6.7239604e-34 -0.019931374 0.1836218 0.08229283 0.11218911 2.307417e-35 -0.003444261 0.118643805
-0.0010122706 0.09264151 0.30312657 1.9439168e-34 0.042197697 -9.0467985e-35 0.14197513 -0.18489055
8.275592e-34 -0.21600813 -0.11418608 -6.458573e-35 -0.20300722 -6.2853467e-24 -0.13562894 -0.17045315
2.533606e-35 -3.1260456e-34 0.22557668 -0.00087687455 -0.116591625 0.13940886 -1.1096941e-33 -0.16801399
3.0060398e-34 -0.09049152 -0.059059907 0.05585429 0.22990601 -8.8808925e-35 0.18386215 0.07007179
-0.12114533 0.06672388 0.09262541 -5.4917e-34 0.005056269 3.6165031e-37 -0.1461708 -0.16405587
5.906598e-34 -0.35639274 0.16172625 5.045422e-34 0.17241436 -3.291246e-29 0.14312638 0.22457644
1.521955e-34 1.2972461e-31 -0.026757266 0.009549426 -0.31460878 -0.09419124 -3.965461e-33 0.004023745
-0.003490399 -0.2640114 0.03069378 -0.053085636 -0.07671675 2.2116936e-08 -7.794163e-33 -0.022894675
-0.19775778 -0.21296577 0.20827211 -2.9125997e-06 -0.10180162 -1.310359e-31 -0.26945135 -0.3688125
6.2352527e-25 -0.009316092 -0.0040985527 0.016680997 -0.048313156 -0.09463986 0.21477099 -0.00038784766

conv4.bias f4 [8]
00000000: 1401 9f3f 35f1 8c3f 05e1 9a3f 1e5e ab3f
00000010: 5cd0 9e3f be21 9c3f abec b73f 4b75 bf3f
1.2422204 1.101111 1.209992 1.3388097 1.2407336 1.2197797 1.43691 1.495767

conv4.lin.weight f4 [8, 16]
00000000: bc2b 9dbe 22d6 43be ef83 a93d 8490 943e
00000010: 218d b93d 3720 a73e 65da c0be cc7d 473e
00000020: fee1 eabd 40e8 9f3c 2be4 873d 64c5 cd3d
00000030: 233b 4ebe a66a 993e 97ae c13e 71dc d2bd
00000040: 8c55 b3be eeca 8e3e a3b8 62be e49c 81bd
00000050: 2888 21bd 220a 973e 0e32 97be 85e5 be3e
00000060: b3ba 02be a53b 813d 7252 2a3e 2c44 ac3e
00000070: f2c6 263e fa19 8b3e fb9b 863e d3a1 7f3e
00000080: 72b1 d93e 2cca 47be e809 79be 9e90 94be
00000090: 95ca b23a 865d b3be 0bfb d93e 9c55 aabd
000000a0: 3ea6 a43e a789 7b3c 75d4 7bbe ce23 9b3e
000000b0: bd0c 203e 4706 b93e 52c3 8c3e a1a8 713e
000000c0: 04e1 b8be c45e d33d 2c10 66be 8fb9 da3e
000000d0: 8950 4b3c c50d f4bd 21f5 f93e c5d7 43be
000000e0: 8efd c1be 500f a1b9 21ce 00be e237 a23e
000000f0: 4756 893e 9b94 a23e d60b 533e b8cd 52be
00000100: ed69 99be 8c8a 3c3e 117d a9be 3c78 633e
00000110: 99f0 91bd 77e4 28be 93b2 ce3e f3fd ffbc
00000120: 629f 4c3e 2a98 103d d143 43be d79b 793e
00000130: 5d15 073e ec64 be3e 7e4a 883e 3809 bbbc
00000140: ad4b 7f3e 5e39 3d3e ee4a 523d 8289 fa3c
00000150: 9fd4 813e 82a8 b1be 3356 1dbe 7b67 4b3e
00000160: 04ba 4bbe 4f94 f3bb 7216 82be 3f67 933e
00000170: 34e2 d13d e21e 893e bf78 813e f6c0 a1be
00000180: 39d6 c33d e5cd 70be bfc3 283e cf0c 8abd
00000190: 19f5 94ba 3bb9 b43e de7b c6be 8915 b53e
000001a0: 3d06 b43e 4c9b 38bc 598b 943e 7c17 a13d
000001b0: 7e8d 42be fe14 053e 164f 903e 870b 5abe
000001c0: 4450 debd 03f3 a9bd 19c4 b73c 00de a33d
000001d0: 9fe8 f1b7 33c8 ed3e ed5f a2bc fb3e 73bc
000001e0: b580 b13e 8cab b0bc 870e 3a3d b250 343e
000001f0: 6d56 4abb 1e4a 533e 158f 4e3e cd72 d8bd
-0.3069743 -0.19124654 0.082771175 0.29016507 0.09060121 0.32641765 -0.37666622 0.19481581
-0.11468886 0.019519925 0.066353165 0.10047415 -0.20139746 0.2996418 0.37828514 -0.10295952
-0.35026205 0.27889198 -0.22140746 -0.06328753 -0.03943649 0.29499918 -0.29530376 0.37284485
-0.12766533 0.063102044 0.16633013 0.3364576 0.16286829 0.27168256 0.2629088 0.24964075
0.42518193 -0.19510716 -0.24320185 -0.29016584 0.0013640696 -0.3503229 0.42574343 -0.0831711
0.32158083 0.015352643 -0.24592765 0.30300754 0.1562986 0.36137602 0.27492768 0.23599483
-0.36109173 0.103208095 -0.22467107 0.42719695 0.012409338 -0.11916689 0.4881983 -0.19125278
-0.3788876 -0.00030719722 -0.12578632 0.3168326 0.26823637 0.31754002 0.20609984 -0.20586288
-0.29963627 0.18412226 -0.3310323 0.22213835 -0.071259685 -0.16493402 0.40370616 -0.031249022
0.19982675 0.035301365 -0.19068839 0.24375854 0.13191743 0.37186372 0.26619333 -0.022831544
0.24931212 0.18478915 0.05134099 0.030583147 0.2535753 -0.34698874 -0.15364914 0.19863693
-0.19895178 -0.0074334512 -0.2540775 0.28789708 0.10248223 0.26781374 0.25287434 -0.3159253
0.09562344 -0.23516043 0.16480921 -0.06740724 -0.0011364549 0.3529757 -0.38766378 0.35367993
0.3516101 -0.011267494 0.29012564 0.078658074 -0.18999287 0.12996289 0.28185338 -0.2129346
-0.10855153 -0.08298304 0.022432374 0.080013275 -2.8837761e-05 0.46441802 -0.019821132 -0.014846559
0.34668508 -0.021566175 0.04542401 0.17608908 -0.0030874268 0.20633742 0.20171769 -0.105687715

conv5.lin.weight f4 [1, 8]
00000000: 9474 3a3f 7ef3 1e3f a288 1ebf 4ae9 083f
00000010: 7c95 c4bd d964 ae3e cc8d 3d3e a81d 94be
0.72834134 0.6209029 -0.61927235 0.5348097 -0.095988244 0.34061316 0.18511122 -0.28928876
