Assets/ONNX/mnist.onnx (onnx, 88545 bytes, 8 tensors)

conv1.weight f4 [10, 1, 5, 5]
00000000: 08be fe3d 457a 07be 77b3 28be 4a04 71bd
00000010: 0c37 97be d91f 303e 166e 74bd e1a8 6a3c
00000020: 16ef 62bd 3b27 a1bd cdb1 233e 1b0e d13d
00000030: 6a62 173e 629e 74ba 3e8c 383d feec 813d
00000040: 37d4 0d3e 3be9 e83d 40a5 903e b84f 253e
00000050: 6a45 80bd 631c dabd cc2b 1bbd d011 99bd
00000060: ca4e 58bc ac33 eb3d eb14 b13e bef8 493e
00000070: a87a bbbe df7b 13be 6155 843e d93b f43e
00000080: 6e35 283e 5484 cbbe 190b e0be 62c0 213e
00000090: ce81 f23e 91f0 9abc 3d5c b5bd ba6f 86be
000000a0: 135e ca3e 002d 2f3e 2db2 893e 4306 483c
000000b0: 2257 d6bd 126e 703e 05d0 be3d 12ae 723e
000000c0: 0223 c73d c010 d23d e2d4 9fbe a470 2cbe
000000d0: f5c8 2c3e 50ec 133e a7d4 b93e fbb8 e23d
000000e0: 5559 093d beb0 c53d 6102 d23e 3ef2 583e
000000f0: db64 9dbd 58c7 a03e 837b e73e a2df e63e
00000100: 6f6d 34bd 01d7 9b3d 5988 5c3e 2d5a 9a3e
00000110: 3edf 5ab9 9cbd 08be 859b 4f3e a854 003e
00000120: dea2 843e b285 833d c941 f83a 9bf7 f83d
00000130: 4267 4c3e fb80 673e b1da c3bd a914 2d3e
00000140: 9ebf ffbd b84d aabd 001e b43d 4b43 0f3d
00000150: 7a2a 3f3e e23a 01be f05f 38be cea3 e83d
00000160: 651d 4bbd 7182 f33d f611 5b3d c4ac 4bbe
00000170: d8f5 8abd 8402 30bd d340 44be a09b bcbd
00000180: e5c5 b23c e2af 90bd 5d5f 38be e8bd fcbd
00000190: 0af5 9a3e 5e3c 493e 81a2 b43e 87b1 3a3e
000001a0: be28 70be c82f a03d e531 233f c00e d73e
000001b0: 429f a13e cad3 463d 9d1b ef3e a160 563f
000001c0: adc2 473f ba3f 2b3e 03ec 4c3e 3419 e03e
000001d0: dc6b 273f c638 063f bc37 013e 56d3 ea3c
000001e0: 3522 e5bd dbce 333e d8bd ad3e 8eb2 78bc
000001f0: eeee 083e 86a6 2cbe dd36 7bbe 2dcb 24bc
00000200: 7a67 b73e dccb ef3e c5a7 90bd 74e5 043e
00000210: 3c41 d23e 503b 0d3f d3c0 e23e 698d 883e
00000220: 904e 8d3e 562f aa3e a1f2 803e 7cfa 5e3d
00000230: 194f 2abd 2f5e 553d cab6 7a3d ad5d ac3e
00000240: 12f4 553e 4172 dcbd 7a1d 1f3d aadc 013e
00000250: 2c15 823e 9ccf 563e a61b c6bd e138 233e
00000260: fe35 11bd e78d ba3c ced4 30be 5729 3ebe
00000270: 732f 2ebe e8a4 c1bd 5922 363e b260 73bd
00000280: 8de9 41be 15df 7a3d a2b9 d23d d951 3c3e
00000290: 2103 d8bd e6d8 6e3d 2883 10bd c457 0f3d
000002a0: 024b bdbd 2f8d 6dbd b760 9fbb 1a74 183e
000002b0: c49a ec3d d889 013e 924d 8b3e 3b07 343e
000002c0: 18be e93d 3a31 75bc 96d0 41be 76aa c03d
000002d0: 4362 adbd e921 8ebd 1f14 76be eb53 1cbe
000002e0: b3e4 72be 8277 263e 8f02 49be 4b41 4fbe
000002f0: f99d a9bd db02 1ebe d12f f53d a0c6 923a
00000300: eabf 41bc 10fb 9f3d c569 713e ce7a 5fbd
00000310: 8b04 813e 5fe1 a73e a2e3 b63e f905 1cbc
00000320: 5de3 a93c 88fb 0fbe 7548 593e 38e6 cd3c
00000330: 1ed0 863e e663 113d 8ea0 2a3d f079 ce3d
00000340: 6a6b 6a3e c6b6 a93e 224f 8e3d 3d9f cf3d
00000350: b63e c8bd af0f a83e 997e d53e b84a ed3d
00000360: c99a a93d 162e 33be 8c75 b4bb d1fa aa3e
00000370: c743 a6be 080d 8f3c f570 82be f9ff 18be
00000380: 3dca 293e 71cf 7bbd b04c 7b3d c950 a23e
00000390: 107d c53e 3e98 c83e 818c 6c3d f9b4 48bd
000003a0: f424 c63e 17a8 373e 9e97 d73d 2694 b93d
000003b0: 27be d5bd 4910 4c3e 8917 5a3e 6f60 a7bd
000003c0: 3be3 38be 0e98 44bd 7518 4d3d 7ad1 82bc
000003d0: 6e2f f1bd fccc 39bd 3284 8cbe 0d9c 72be
000003e0: 6da4 4abe a0a9 bb3d
0.12438589 -0.13230236 -0.1647471 -0.05884198 -0.29534185 0.17199649 -0.0596753 0.01432249
-0.05540379 -0.07868811 0.15985794 0.102077685 0.14783636 -0.0009331462 0.04505562 0.06344031
0.13850485 0.1137261 0.28251076 0.16143692 -0.0626324 -0.106499456 -0.037883565 -0.074741006
-0.0132023785 0.11484465 0.34586272 0.19723794 -0.36617017 -0.14402722 0.2584639 0.4770191
0.16426632 -0.39749396 -0.43758467 0.15796044 0.47364658 -0.01891354 -0.08855484 -0.26257116
0.39524898 0.1710701 0.2689375 0.012208524 -0.10465838 0.23479488 0.0931702 0.23699215
0.09723474 0.10257101 -0.31217104 -0.16839844 0.16873534 0.14445615 0.36295053 0.110704385
0.03353246 0.096528515 0.4101744 0.21186158 -0.07685252 0.31402087 0.4521142 0.45092493
-0.044049677 0.07609368 0.21536388 0.30146924 -0.00020873264 -0.1335358 0.2027417 0.12532294
0.25905508 0.06421985 0.0018940504 0.12156602 0.19961265 0.22607796 -0.095631965 0.16902412
-0.1248772 -0.08315605 0.087947845 0.034976285 0.18668547 -0.12620118 -0.18005347 0.11359368
-0.04958858 0.11890114 0.053483926 -0.19890124 -0.06785172 -0.04297115 -0.19165353 -0.092093706
0.02182288 -0.07064797 -0.18005128 -0.12340909 0.30265075 0.19651935 0.3528023 0.18231784
-0.23453042 0.078216136 0.6374801 0.4200344 0.31566817 0.04854182 0.46700755 0.83741194
0.78031427 0.16723529 0.20011906 0.43769228 0.65398955 0.5243038 0.12618917 0.028665226
-0.11188165 0.17559378 0.33933902 -0.0151792895 0.13372394 -0.16860399 -0.24532647 -0.0100582065
0.35821134 0.4683522 -0.070632495 0.12978154 0.41065395 0.5516863 0.44287738 0.26670387
0.27599 0.3323924 0.2518511 0.0544381 -0.04157934 0.052091774 0.061209477 0.3366522
0.20893887 -0.1076398 0.03884647 0.12681833 0.25406778 0.20977634 -0.09673242 0.15939666
-0.03545188 0.022772742 -0.17268679 -0.18570457 -0.17010288 -0.094552815 0.1778654 -0.059418388
-0.18936749 0.061247904 0.10289313 0.18390597 -0.10547472 0.05831232 -0.03528133 0.03499581
-0.09242822 -0.05799597 -0.004863824 0.14888039 0.11552957 0.1265024 0.2720762 0.17580883
0.11413211 -0.01496535 -0.18927225 0.09407513 -0.084660076 -0.069400616 -0.24031113 -0.15266387
-0.23720054 0.16256526 -0.19629882 -0.20239751 -0.08282084 -0.15430777 0.11972011 0.0011198111
-0.011825541 0.07811558 0.23575504 -0.054560475 0.2519878 0.32789132 0.35720545 -0.009522908
0.020738298 -0.14060795 0.21219046 0.02513419 0.26330656 0.03549566 0.041657023 0.100818515
0.22892538 0.33147258 0.06948687 0.10137794 -0.09777586 0.32824466 0.4169815 0.11586517
0.08281476 -0.17498049 -0.0055071767 0.33394483 -0.32473585 0.017462268 -0.25476804 -0.14941396
0.16581054 -0.06147713 0.06135243 0.3170226 0.38571978 0.39178652 0.057751182 -0.049000714
0.38700068 0.17935215 0.105269656 0.0906146 -0.10436659 0.19928087 0.2129804 -0.0817269
-0.18055432 -0.047996573 0.050072152 -0.015969027 -0.117766246 -0.045361504 -0.27444607 -0.23692341
-0.19789286 0.09163213

conv1.bias f4 [10]
00000000: ff15 833e 80fd e1bd 6efd dc3c c2ec 0e3e
00000010: 8e90 bfba 8f28 263d f2dd 203e 3b51 353e
00000020: acd5 22ba c014 c13d
0.2560272 -0.110346794 0.026976313 0.13957503 -0.0014615224 0.040566023 0.15709665 0.17706768
-0.0006211649 0.09427786

conv2.weight f4 [20, 10, 5, 5]
00000000: 84e9 543d cf99 013d 0beb 9fbd 1950 373d
00000010: 3b7c f13c 16c2 31bd 1051 953c d37f c0bd
00000020: 76a1 203d 4ebb 01bd 538d 493c d8dd 74ba
00000030: 10cb 7e3b 9f87 8b3d e582 13bc e49e 70bd
00000040: 6262 95bd 53a6 663c 394f 50bb 95af 413c
00000050: be14 f8bc 1fa1 923c 2876 833d 2810 e23c
00000060: af94 8cbc 1f82 90bc 30bc e0bd 121b 50bd
00000070: a500 5cbc 89ce 993d 1896 0dbc 2323 01be
00000080: 81a6 2cbb 87a7 8e3d 3e14 383d 01d0 abbd
00000090: 5ffc 8fbd 54b3 c13d dfd9 7e3c 9eae f0bc
000000a0: 4986 88bd 0c58 473c fe00 e73d 8039 9bbc
000000b0: 9aad 34bb 9d19 82bc 72ea a13c 0ebe a93d
000000c0: 77c9 d6bc d6aa 823d e8e4 b6b8 17da 8ebd
000000d0: 73d7 31bd 743f 793d 4540 b73d 780c f7bd
000000e0: 8250 e9bc 1fa8 023e 9742 d83d 53f2 91bb
000000f0: a1b2 5fbd a329 8c3d eed0 9a3d 1571 37bd
00000100: c65e 1abc 5338 06bd 322f 533c 960d 11bc
00000110: 8258 b3bd 46f4 79bd 53eb 273d 0a0c 6dbc
00000120: 04a7 3abd dd6e 6abd fd27 eebc 0187 85bc
00000130: b094 4fbd bc07 1fbd bb7a 153c 863a 7ebb
00000140: 6cb0 32bd a694 88bd 8006 89bd 943f 143d
00000150: 467e 78bc ffa8 afbc bebd dfbc 1781 78bd
00000160: f537 a0bd 3f33 2bbd 06db 4e3d 442b c63c
00000170: 908f b1bc 67d9 a7bc 09df 3c3d ddfa 253d
00000180: 2bbd 8e3d 047b 3b3d c8c4 473d 5a5d 3a3b
00000190: 8081 8a3b f668 1cbe c795 03bd 4b3f c23d
000001a0: e066 2d3e bfb2 78bd 69ac 26be 7df4 83bc
000001b0: 84ca ca3d b23f 58bc d286 1abe cfdd 493d
000001c0: 79b4 093e c3a4 2f3c 48f7 55bd 0514 f1bd
000001d0: 7d58 3e3c 158b 1d3e 4162 10bc f505 2abd
000001e0: 7c20 7cbd 136e c2bd 09c5 b7bc 94d5 59bd
000001f0: 4668 84bd 6bf1 b23c 9c47 99bc 30ab 523d
00000200: 4021 7b3d d8d3 5cb9 8c45 71bd 3490 583d
00000210: cd17 c43d efad 113d 42a2 693c 102d 00bc
00000220: a5e2 083e fd71 c33d 3dd4 fd3c 567b 0fbd
00000230: 7fee 26bd 33b4 e73d 56fe 0f39 f96b 87bd
00000240: 4c81 a9bd 70fe 99bd 1cad 48bd b29b dfbd
00000250: 79b7 d63c 945c 8dbd 7fd3 9dbc 6adb 203c
00000260: 99ab fa3c ac84 e6bc 3dcb 8b3c 0f4a ec3c
00000270: 929e 6dbd c34b 8c3d fd7f 0cbd 322e fcbc
00000280: c378 84bd ded3 7b3d 689f 993c 74c1 383d
00000290: b8fd c5ba e176 503c 5c40 99bc 4360 4fbd
000002a0: 1766 823c 483b f6bb e239 c23b 2a55 a3bc
000002b0: ddc8 7a3c d05f 193d 1e49 913c 66c2 67bd
000002c0: 3f93 343d c518 7ebc 7624 823b 18f7 2f3d
000002d0: 7a57 56bd 0324 9d3d 9a59 cfbd 24fd 573c
000002e0: 742f 173d 8e52 9f3b 5915 81bd 1f26 d23b
000002f0: 9efa 28ba 4e80 18bd 3e2a 3fb7 4884 89bc
00000300: 5bdc 9b3d 51a6 173d 0923 b03d f8e8 263d
00000310: 98c4 39bd 94fc a4bc fe7b 433d 9104 05bd
00000320: 14f6 29bc 8b5d 82bd 2eb4 833d d586 443d
00000330: 177e 92bc 17e1 f5bb 61e5 6dbd f7b0 cabc
00000340: abe4 8d3c 6dcd 85bd 15f7 1d3c cdfb 803b
00000350: bc7c 773d 1df3 3b3d 4a5a 503c fe22 7a3d
00000360: dabc 0ebd e792 fc3c b2ed 803c dc21 abbd
00000370: 2787 33bc 478a 61bd 95b5 963c 5b4a e43b
00000380: 80cd 653c d274 3cba bbf2 79bd e6cd 6b3d
00000390: 1547 203d 3601 043d 2c81 833b 18e5 9ebd
000003a0: 0d76 e33c 4e6c 33bd 94b4 d23b 9b8d 2e3c
000003b0: 0dfd 7a3d 5c42 d6bc ea85 7bbd 7817 963b
000003c0: 0054 85bd d59c 98bb 58f6 3bbd 8bd8 41bc
000003d0: 181a f2ba 99f6 9dbd 4335 e7bc be0d 6bbd
000003e0: d660 873d 1958 e5bc 558a 1bbd fa6d c83c
000003f0: 468d 65bd b0b0 b53c 77b6 b63c ff5a 6fbd
0.05198051 0.031640824 -0.07808503 0.04475412 0.029478183 -0.043397985 0.01822713 -0.093993805
0.03921648 -0.03167277 0.012301761 -0.00093409186 0.003887836 0.06812977 -0.009003376 -0.05874528
-0.07294156 0.014077741 -0.0031785502 0.011821647 -0.030283328 0.017899094 0.06419021 0.027595595
-0.017160742 -0.017640172 -0.10973394 -0.050807066 -0.013427888 0.075100966 -0.008641742 -0.1261106
-0.0026344361 0.06965547 0.04494118 -0.08389283 -0.07030558 0.09458032 0.015554874 -0.029380139
-0.06666238 0.012166988 0.11279486 -0.018948317 -0.0027569295 -0.015881354 0.019765113 0.08288203
-0.026219113 0.063802406 -8.7210734e-05 -0.06975191 -0.04341836 0.06085153 0.08947805 -0.12062925
-0.028480772 0.12759446 0.10559576 -0.004453936 -0.054613713 0.06843879 0.075593814 -0.044785578
-0.00942201 -0.03276856 0.01288967 -0.008853337 -0.08757116 -0.061023973 0.040995907 -0.014468202
-0.045569435 -0.057234634 -0.029071802 -0.016299726 -0.05067891 -0.038825735 0.0091234995 -0.0038792207
-0.04362528 -0.066689774 -0.06690693 0.036193445 -0.015166825 -0.021442888 -0.027312156 -0.060669985
-0.07823173 -0.04179692 0.050501846 0.024190553 -0.021674901 -0.020489408 0.04611114 0.040522445
0.06969675 0.045771614 0.04877165 0.002843699 0.0042268634 -0.15274414 -0.03212526 0.094847284
0.16933775 -0.06071734 -0.16276707 -0.016107792 0.09901908 -0.01319878 -0.15090492 0.0492838
0.13447751 0.010720435 -0.05223778 -0.117713965 0.011617777 0.15385087 -0.008812488 -0.041509587
-0.061554417 -0.09493651 -0.02243282 -0.0531822 -0.06465201 0.021843633 -0.018710904 0.05143279
0.061311007 -0.00021059753 -0.058904216 0.052871898 0.09574852 0.035566267 0.014259877 -0.007823244
0.13367708 0.09543226 0.030984992 -0.03502973 -0.04075479 0.11313667 0.0001373229 -0.06612391
-0.082766145 -0.07519233 -0.048993215 -0.109183684 0.026210533 -0.069024235 -0.019265888 0.009817937
0.030599402 -0.028139435 0.017064685 0.028843908 -0.058012553 0.06850388 -0.034301747 -0.030783746
-0.06468346 0.06148135 0.018752769 0.045106366 -0.0015105521 0.012723655 -0.018707447 -0.05062891
0.01591782 -0.007514391 0.0059273103 -0.01993807 0.015306679 0.03744489 0.01773506 -0.056581877
0.044085737 -0.015508835 0.0039716316 0.042960256 -0.052329518 0.07672884 -0.10124512 0.013182912
0.03691049 0.004862136 -0.063029 0.006413236 -0.0006446036 -0.037231736 -1.1394322e-05 -0.01678671
0.07610389 0.037023846 0.086004324 0.04074952 -0.045353502 -0.02013997 0.04772567 -0.032475058
-0.010373611 -0.06365498 0.06430851 0.04798015 -0.01788239 -0.0075036394 -0.05808008 -0.024742587
0.017320951 -0.065333225 0.0096414285 0.003936267 0.06042169 0.045886148 0.012716839 0.061068527
-0.03484807 0.030831767 0.015738342 -0.083560675 -0.010957516 -0.055063512 0.018397132 0.0069668717
0.014026046 -0.00071890384 -0.0610225 0.057569407 0.03913029 0.032227717 0.004013201 -0.0775854
0.027766252 -0.04380446 0.006430218 0.010653879 0.061276484 -0.02615469 -0.061407007 0.0045804344
-0.06510162 -0.0046573677 -0.04588923 -0.011831413 -0.0018470911 -0.077130504 -0.02822364 -0.057386152
0.06610267 -0.02799611 -0.03797372 0.024466503 -0.056042932 0.022178978 0.022303803 -0.05843639

conv2.bias f4 [20]
00000000: 52e1 cc3c 7992 81bc 6053 fc3c 313b f8bc
00000010: 00b7 99bd ac02 c2bc fe3b 44bd f01c e13b
00000020: 6fb1 d7bc d714 08bd ca17 683c d206 8cbd
00000030: 95fc 3fbd 264a be3d 6569 76bd f21f 9ebd
00000040: 9bf5 7d3c ef61 e8bd b8e5 93bd c628 3a3d
0.025009785 -0.015816914 0.030801475 -0.030301662 -0.075056076 -0.023682915 -0.047908776 0.0068699047
-0.026329724 -0.033223 0.014165828 -0.06837238 -0.04687174 0.092914864 -0.060159106 -0.07720937
0.015500451 -0.11346804 -0.0722155 0.04544904

fc1.weight f4 [50, 320]
00000000: b404 e7bd 2037 8bbd 321a 07bd 3bd4 edbc
00000010: 475f 303d 90bf 5cbb 167e ae3c c04f 7bba
00000020: fe14 afbb 9c08 0a3d 1aa7 663d c6c5 f43c
00000030: 9e9e d03b 96f1 92bd 1024 033d 7d5e 5bba
00000040: 3589 a3bc 305d 103d 03e6 45bc 69fd 783d
00000050: f710 0d3d 3db0 e23b b8a0 2a3d 443b 62bb
00000060: 0ad1 793d a823 87bd 1e3f db3c 4f92 893b
00000070: 7298 3d3b 41eb d9bc a494 ea3c 7005 7cbd
00000080: 2203 6dbd b7a1 34bd fb9a b3bd 0520 abbd
00000090: dc9b 5739 6fe8 033d 3545 823d 9f75 883d
000000a0: dff9 6c3d f553 ebbc a031 9dbc 3f0d 5ebd
000000b0: b94a 9dbc 59ad 97bb b4d8 ab3d 0910 a1bd
000000c0: d7c2 853c 3102 f43d 1fb9 aa3d e238 1d3c
000000d0: ebeb b3bc ec52 ee3b cd36 a3bd 1b83 a7bc
000000e0: 69d4 0abd 60e2 0ebd e222 6ebd 7e63 0bbd
000000f0: 9f8e 80bd 1a3b 8abd 29e9 60bd 90af b1bd
00000100: 4a0d 243c a30d 453c 2dae 78bc 9e51 1abd
00000110: 4cc8 ed3a 626d 5a3c 69ac b8bc 058e 0fbd
00000120: d4b4 c8bc 3f5b 0ebd 905b 303d 9b5b a03c
00000130: 8dce 18bd 0c50 2f3d b37c 8f3c 735f bfbc
00000140: 0951 4ebd 872e ef3c adf9 08bd 697f b0bd
00000150: 9d22 3fbb 4809 733c c893 e0bc 9896 ec3b
00000160: 29fa 7abc 26f2 f8bc caf3 6c3c a4df 8bbc
00000170: 941a 60bc 4260 4b3d b0a7 a13d 2587 c4bc
00000180: 485f 9b3c cf26 e73c 3c90 ad3c 1309 cd3a
00000190: b04d 6b3d 4f5c 16bc 3e40 ffbc 0b83 193d
000001a0: 30f3 9abc 7ee8 33bd ae8b 553d 9bb7 493d
000001b0: 1b3c 4b3d ea50 943b 67d9 133c e3da 163d
000001c0: 480a a1bb 44bf 47bd c15e 903d 14b3 5d3c
000001d0: d445 aa3c d1fe da3c 40fd 8a3c 86fe 483d
000001e0: 1c28 913d 6628 883c 3643 73bd f687 d73c
000001f0: 7390 4a3c c3e6 26bd 0782 8dbc a808 5abd
00000200: cce2 12bd ca75 e13b a9b2 843d e425 1f3d
00000210: 6ae5 583c 7fc0 5a3d b25a 5e3d 3d08 283d
00000220: 2119 983d c045 b3bc 4fc2 1cbc c6d9 053d
00000230: 2556 223c 9f6b ec3b 5dc3 93bd 752d 5fbd
00000240: bbd3 20bd 8e9d 4fbd f676 34bd 2f19 a63c
00000250: 529f 1b3d 6fd0 213c 6b3b 8c3a 77c6 21bd
00000260: 95f4 b7bb 936b 15bd f559 4f3c 4d62 8e3d
00000270: 8a59 e13c 7a50 253d 3508 8f3d ea76 013d
00000280: d327 653b 8fe4 23bc c406 febc c4f7 e8bb
00000290: 58b7 86bb 6ed4 1ebc d455 a43d 6562 40bc
000002a0: 7a4b b7bd a8a8 173d e82e 5d3c 7023 783d
000002b0: 93ee 013c 35d4 513d 0cbc a13d 260f 0cbb
000002c0: 916a 80bc bc1d dfbd 6b44 a7bd 9db5 babd
000002d0: 558d de3c c304 853d 84c9 003d bfe8 76bd
000002e0: d4a9 a23c 622e 42bd 32c9 ae3c d01c 6cbb
000002f0: f4fd 6b3c a3b9 f13c d7cb 253d 3598 743d
00000300: 5a56 23bd c181 dabb 369b d8bc ff57 3339
00000310: 1539 4b3c 2b19 233d 3e4a 5a3c e31b 583c
00000320: 0a49 a93c be2d 83bd d323 9ebc 2cbf 56bc
00000330: 0394 b23c 0f9b f838 c46f 173d 9f51 dcbc
00000340: 9872 94bc e3c3 6b3d 31c6 873d 91ab 563d
00000350: 9602 813c 856b 53bd 0f3c 303c e7ae 5ebc
00000360: 9c33 c6bd 5e24 f63b e221 94bb aaec 14bd
00000370: f963 78bd 39b3 ce3c c5b6 46bc da45 53bd
00000380: df55 213c 4169 993a ada0 bbbd 06c8 c7bd
00000390: f271 86ba c2cb f5bc b83f 35bd b5f8 803c
000003a0: 8f5d dbbc 7d66 963d fb07 313d 8b46 273d
000003b0: 2f88 4abb 6f9b 893c 4c59 d83c 3888 503d
000003c0: 2b52 0c3c 9c1f 6b3b 9a96 e8bd dba1 9ebd
000003d0: 2478 7ebd 409d e03c 2234 7b3c a234 ca3d
000003e0: 3318 3a3d 5243 a9ba 4dfd 993d 9d12 07bd
000003f0: 4caf b33c da56 cabc 975b f4bb 8fd7 93bd
-0.11280194 -0.06797624 -0.032983966 -0.029031863 0.043059614 -0.0033683516 0.021300357 -0.0009586774
-0.0053430786 0.033699617 0.056311704 0.029879462 0.006366565 -0.07174985 0.032016814 -0.0008368267
-0.019962886 0.03524512 -0.012078765 0.060788546 0.034440007 0.006917982 0.04165718 -0.0034520188
0.06099037 -0.06598598 0.026763495 0.0041983495 0.0028929976 -0.026601436 0.02863533 -0.061528623
-0.057864316 -0.044099536 -0.087697946 -0.083557166 0.0002056206 0.032204088 0.063608564 0.066630594
0.057855483 -0.028726557 -0.019188702 -0.05421185 -0.01920067 -0.004628819 0.08390942 -0.078643866
0.016328258 0.119144805 0.0833609 0.009596081 -0.02196308 0.0072730687 -0.07969437 -0.020448258
-0.033893976 -0.034883857 -0.058138736 -0.03403043 -0.06277203 -0.06749554 -0.05490986 -0.08676064
0.010012934 0.012027177 -0.0151782455 -0.037675492 0.0018141358 0.013331743 -0.02254315 -0.03504755
-0.024500288 -0.034754988 0.04305607 0.01957493 -0.037306357 0.042800948 0.017515516 -0.023360943
-0.05037025 0.02919699 -0.033441234 -0.086180516 -0.0029164918 0.014833756 -0.027414218 0.0072201006
-0.015318432 -0.030388903 0.014462421 -0.017074414 -0.013678212 0.049652345 0.07893312 -0.023990223
0.018966332 0.028216748 0.02118694 0.0015642963 0.057447135 -0.0091772815 -0.031158563 0.037478488
-0.018914789 -0.043922894 0.052135162 0.049247365 0.049617868 0.0045262473 0.009024001 0.03682984
-0.0049145557 -0.04876639 0.07049323 0.013531465 0.02078525 0.026732834 0.016966462 0.049070857
0.070877284 0.016620826 -0.05939027 0.026309948 0.012363541 -0.040747415 -0.017273916 -0.05323091
-0.03586082 0.0068804966 0.06479389 0.038854495 0.01323829 0.053406235 0.054285713 0.04102348
0.07426668 -0.021883845 -0.009567811 0.032678388 0.009908234 0.007214978 -0.07214997 -0.05448671
-0.039264422 -0.050687365 -0.044058762 0.02027568 0.037993737 0.009876355 0.001069886 -0.03949591
-0.0056138732 -0.036479544 0.012655725 0.06952343 0.027508516 0.04035995 0.06983987 0.031607546
0.0034966364 -0.010003223 -0.031009085 -0.007109614 -0.0041112117 -0.009694202 0.08024183 -0.011742209
-0.08949943 0.037026078 0.013499953 0.06058067 0.007930416 0.051227767 0.07897195 -0.0021371334
-0.015675815 -0.10894343 -0.081673466 -0.09116671 0.027167002 0.06495049 0.03144218 -0.060280558
0.019856371 -0.047407515 0.021336172 -0.0036027916 0.014403809 0.029507464 0.0404776 0.05971547
-0.039877273 -0.0066683 -0.026441198 0.00017103551 0.012403746 0.039818924 0.013323365 0.013190242
0.02066471 -0.06405209 -0.019304192 -0.013107102 0.021799093 0.000118544434 0.036971822 -0.026894389
-0.018121049 0.05755986 0.06629599 0.052409712 0.015748303 -0.05161621 0.010756507 -0.013591505
-0.096778125 0.0075116595 -0.0045206407 -0.036358513 -0.060642216 0.025231944 -0.012128537 -0.051580288
0.009847133 0.0011704342 -0.09161506 -0.09754948 -0.0010257347 -0.030004386 -0.04425022 0.015743593
-0.02677801 0.07343767 0.0432205 0.04083876 -0.0030903926 0.01679775 0.026409768 0.05091116
0.008564512 0.0035876995 -0.1135685 -0.07745715 -0.062126294 0.027418733 0.015332254 0.0987332
0.045433234 -0.001291374 0.075190164 -0.032976735 0.021934174 -0.024699617 -0.0074572074 -0.07218849

fc1.bias f4 [50]
00000000: 31df 663d 9941 353d d308 b43b bb05 90bc
00000010: 62ef fb3c e03b 8abb 0a09 c53c 2333 f1bc
00000020: 9717 f43c 2e7d 2f3c 75a5 3d3d 7afe b43d
00000030: cf20 b3bc 6f3b 303c 4b27 183c 8c77 77bc
00000040: 849c a03d b45f 533d 0e63 be3d cd23 83bb
00000050: 51df 5c3d e7e1 bd3c 5f82 25bd 070e 863d
00000060: 00d5 383d 66b9 533c 472f c73d 9243 683b
00000070: c4f3 84bc 14c8 adbc a017 62bc 1c5f 773d
00000080: 4551 8b3c 5673 3dbc 3e9d 29bd 01d8 d93d
00000090: b732 403d eed0 6fbd 65ca 143d 8179 b0bc
000000a0: 09e6 2f3d 1137 e63d 08da 303d 38a5 f9bc
000000b0: fb2b ec3b 648e 5a3d bba9 1ebd c7f7 34bd
000000c0: 4288 893d 9f9d 873d
0.056365196 0.044252012 0.005494216 -0.017580858 0.030753795 -0.0042185634 0.024052162 -0.02944333
0.029796405 0.0107109975 0.04630037 0.088376 -0.02186623 0.010756358 0.009286712 -0.015104186
0.07842353 0.05160494 0.09296237 -0.0040020705 0.05392391 0.023179008 -0.040407535 0.06545644
0.045125008 0.01292262 0.09725814 0.0035440666 -0.016229518 -0.021213569 -0.013799578 0.060393438
0.017006526 -0.011563143 -0.041409723 0.106369026 0.046923365 -0.05854886 0.03632583 -0.021542313
0.042943988 0.11240972 0.04317668 -0.03047429 0.0072073913 0.05335845 -0.038736086 -0.04418161
0.06715442 0.06621861

fc2.weight f4 [10, 50]
00000000: a9db f33d 652f dfbd 5372 623e c2cc 133e
00000010: b97f 42be f352 c9bd 348c 3bbe 622a 02be
00000020: b0ad e1bd e859 cbbd a408 8cbe 7a4e 57be
00000030: 1c44 fcbd 3b93 4c3e a32c 873e 0a3b 1b3e
00000040: 0884 15be 01dc 6b3e 0ebe 07bc 8a29 60be
00000050: 0baf 11be 2991 19be 4440 78bd 6b59 bcbe
00000060: 80bb f1bc 64c0 7abe 0ca8 52be aac6 89be
00000070: 6e7f 403e ec38 6a3e 3dd8 74be 16e7 2bbe
00000080: 7ee1 823e 4ea9 273e d575 ddbd b52d 573e
00000090: 7cd5 213e 3cb3 c93c dcd7 d7bd ea7f 20be
000000a0: 3515 37be 9f48 8ebe 9e2e b73d 471e 9dbd
000000b0: 898e 61bd 96d7 913e ad5e e4bd f7c8 c8bd
000000c0: 546b 323e c975 013e 7feb 82bd 0ba6 4d3e
000000d0: 1fa5 56be eb77 053d cc23 263e c4be 513e
000000e0: 03c0 66be 8c80 073e 3630 f1bb 5a8b 1abe
000000f0: 177a 523e 421a 683e c59e 30be d6e8 38be
00000100: 68af 33bd ed6a b8be 49e6 2a3e db55 babd
00000110: 3dd9 4bbe 4de2 9f3d 6e3d 30be d91e a5bb
00000120: 5f81 533e e742 273e a4a5 bb3e 4553 8abe
00000130: 5e20 c4be 46fd 603e fd7d 043e f133 833c
00000140: f8ad 613e 834b 0fbe 115d 5fbe 562a 49be
00000150: 1e46 1c3e d83e 143d 1efa 47be 9bb8 c9bd
00000160: 3608 473e 0249 423e 15a8 a73b 9cb7 023e
00000170: f16a 21be d221 72be 6b0f 343e a982 31be
00000180: 33b5 1fbe 31ec 483e a86f a0be 1a47 a53d
00000190: 4093 03be 2daf 0cbe 0bd4 cbbd d2f3 3a3d
000001a0: 9c3c 0bbe fd9c 493e b007 173e 45ed 9b3d
000001b0: f9da a33e 158d 433d 3a2e 42bd 00e8 873e
000001c0: 3ea7 4c3c 838e 363e 0b1c 5c3e 0bd7 b63d
000001d0: dd27 8ebd 50ab b93b e716 1fbe 42ad 50be
000001e0: 2f5e 97bd afc7 473e c784 c3bd 3b8a 4fbe
000001f0: 3bf9 18be 51c7 a3bd 479e 0fbe ca64 d33d
00000200: d92b 5cbe 5647 b4ba 8cd7 09be 5b58 fdbd
00000210: 2009 293d 7739 acbd 2599 303e 3497 263e
00000220: 78e4 d4bd 97c4 e2bd 3606 373e 59fd f03d
00000230: 2f22 593e 5d2f 413e 0d5b a1bd 7422 a4bc
00000240: af55 e3bb f6e1 6d3e 2c65 dcbc c7ce 403e
00000250: a2ae 1bbe 58c2 fe3d 5cfe 03bd 6dbc 7d3e
00000260: 4f03 d93d 0904 32be e3ef 313c c418 42be
00000270: d506 273e 31df 903c 7dda 3dbd 90f0 763c
00000280: ef58 b3bd e0b0 893e dd8e f9bd 6ffc 123d
00000290: 073f f03d a88f 9dbd 86a6 5abd bc92 52bd
000002a0: e569 4bbe 83df 323e 9535 893e daaf 953e
000002b0: aba3 0a3e ea05 7dbd e827 36be 11e2 1bbe
000002c0: 281e 263e 1792 c7bd 136e 493e 2f87 edbd
000002d0: 6c56 9ebe 3aea 8c3e 2519 fbbd 9792 173e
000002e0: 0314 dc3d 302a 1f3e bd63 5f3e cbf8 b63d
000002f0: a246 77be b847 ecbd 36e2 2e3e fee2 383e
00000300: 9209 26be a793 143e 263f 5b3e b697 95bd
00000310: 7299 a7bd ad25 d7bc 4077 15be 56dc ad3d
00000320: d2e9 0c3e 9fa3 8cb7 7d73 08be 7c5f 1a3e
00000330: 199a 1c3e c9c0 453e 59f3 1d3e bcf6 b2bd
00000340: d0df 86bd 1445 e7bd 03a8 723e 57a4 d0bc
00000350: 12ea 853e 800a 6bbe 576d 05be 7db1 ad3d
00000360: 50e7 34bb 4d90 6bbe 8868 623d b760 e7bc
00000370: 2226 12be 56ed 3cbe 49c7 693e 283d 3e3e
00000380: df14 adbc b97f 6d3e 80d0 b73d dcd2 9cb9
00000390: 148f 76bd 9c93 1dbe ee01 3e3e e33e 733e
000003a0: d3a1 5dbe d426 a2be 89aa 22be ca20 6cbe
000003b0: 7a8d 0dbe 22a2 ac3e 3910 533e f031 c6bd
000003c0: 6462 67be c636 9dbd 538e 563e 99f5 c2bd
000003d0: e358 36be 103e b9bb 6025 e0bd 086d 4bbe
000003e0: 45d2 343e 9697 34be 79f6 1a3e c495 dabd
000003f0: 3e02 953d e379 8ebe 03e5 a13d a5e9 e8bd
0.11907131 -0.10897712 0.22113924 0.14433578 -0.18994035 -0.098302744 -0.18315202 -0.1271148
-0.110194564 -0.09929258 -0.27350342 -0.2102603 -0.12317678 0.19978039 0.26401243 0.1515924
-0.14601147 0.23033144 -0.008285059 -0.21890846 -0.1422693 -0.1499678 -0.060608163 -0.3678697
-0.029508352 -0.24487454 -0.20571917 -0.2690938 0.1879861 0.22873276 -0.23910613 -0.16787371
0.25562662 0.16373178 -0.1081349 0.2101353 0.15804094 0.024621598 -0.10539219 -0.15673795
-0.17879184 -0.2778978 0.089444384 -0.076717906 -0.055067573 0.28484792 -0.111508705 -0.09803956
0.17423755 0.12642588 -0.063925736 0.20082872 -0.20961426 0.032585066 0.16224593 0.20482928
-0.22534184 0.1323263 -0.0073604835 -0.15092221 0.20554386 0.22666267 -0.17248066 -0.1805757
-0.043868452 -0.36019078 0.1668941 -0.09098407 -0.19907089 0.07806835 -0.17210934 -0.0050390777
0.2065482 0.16334115 0.3664981 -0.27016655 -0.38305944 0.21971616 0.12938686 0.016015979
0.2203902 -0.13993649 -0.21812846 -0.19645056 0.15261123 0.036192745 -0.19529006 -0.09849664
0.19436726 0.18973163 0.0051164725 0.12765354 -0.15763451 -0.23645714 0.17584006 -0.17334999
-0.15596466 0.1962135 -0.31335187 0.08070202 -0.1284914 -0.137387 -0.09952553 0.04564268
-0.1359734 0.19688793 0.14749026 0.07613615 0.32003 0.04774197 -0.047407366 0.2654419
0.0124910455 0.17827801 0.21495073 0.08927735 -0.06941197 0.005666174 -0.1553608 -0.20378593
-0.07391011 0.19509767 -0.0954681 -0.20267574 -0.14938824 -0.07997001 -0.14025222 0.10321958
-0.21501102 -0.001375417 -0.13461131 -0.12370368 0.041268468 -0.08409398 0.1724592 0.16268617
-0.103951395 -0.11072653 0.17873463 0.11767072 0.21204446 0.18865724 -0.07878695 -0.02003596
-0.0069377045 0.23230729 -0.026903711 0.1882888 -0.15203336 0.12439412 -0.032224998 0.2477891
0.10596334 -0.17384352 0.010860416 -0.1895476 0.163112 0.017684551 -0.046350945 0.015072003
-0.08757197 0.26892757 -0.12185452 0.03588527 0.117307715 -0.07693416 -0.053381465 -0.051409468
-0.19864614 0.17468075 0.26798692 0.29235727 0.13538997 -0.06177322 -0.1778866 -0.15222956
0.16222441 -0.09744661 0.19670896 -0.1159805 -0.3092531 0.2752245 -0.12260655 0.14802013
0.107460044 0.15543437 0.21815391 0.08934172 -0.24148038 -0.11537117 0.1707848 0.1805534
-0.16214588 0.1450945 0.21410808 -0.07304327 -0.08183564 -0.026263082 -0.14596272 0.08489291
0.1376107 -1.6765493e-05 -0.13325305 0.15075487 0.15293159 0.19311823 0.15424861 -0.08738467
-0.065856576 -0.112924725 0.23696904 -0.025468988 0.26155144 -0.22953224 -0.13029991 0.08481119
-0.0027603693 -0.23004265 0.05527547 -0.02824436 -0.14272359 -0.18449911 0.22829928 0.18578017
-0.021128116 0.23193254 0.08975315 -0.0002991174 -0.060195044 -0.1538834 0.18555424 0.23754458
-0.21643762 -0.31670249 -0.15885366 -0.23059383 -0.138235 0.33717448 0.20611657 -0.096774936
-0.22596127 -0.07676463 0.2095273 -0.095195 -0.17807345 -0.0056531504 -0.10944629 -0.19865811
0.17658336 -0.1763595 0.15133084 -0.10673097 0.07275818 -0.27827367 0.07905009 -0.11372689

fc2.bias f4 [10]
00000000: a0ce d6bd 7e04 ff3c c781 dabc c19b 80bd
00000010: cc89 aebd f141 b03d 29da 3ebe bdbf 0dbe
00000020: 2846 4a3e a74b 0fbc
-0.10488629 0.031130072 -0.02667321 -0.06279708 -0.085223764 0.08606327 -0.18637909 -0.13842674
0.19753325 -0.008746064
